models/full_generator.pth (torch, 994254 bytes, 6 tensors)

weight f4 [128, 100]
0.015957864 0.08946069 0.053290863 0.068422675 -0.015960813 -0.04521342 0.059209403 0.057654064
-0.02018108 -0.11294858 0.06283131 -0.08857973 -0.09170849 0.0421651 -0.065965824 -0.01299904
-0.09131688 -0.06462105 0.055203483 0.09190978 -0.078047104 0.049380995 0.04662965 0.07434348
0.08546952 0.009271957 0.014526687 0.1149823 0.084439285 0.08621997 0.1213535 0.10737746
0.030164465 0.080738604 0.094390295 -0.06266141 0.07069401 0.06430084 -0.076305605 0.05811411
0.10701399 -0.02033952 -0.06365464 -0.034396797 0.005964715 0.10002833 -0.008609842 0.095738515
0.043193582 -0.11180859 -0.092132166 0.11192515 -0.0514456 0.0021294074 -0.05987268 0.037945107
-0.029173227 0.07335504 -0.042894386 0.09591602 0.016459106 -0.017313441 0.004455756 -0.08208107
-0.009531662 0.007422284 0.024587324 0.110213205 -0.06954793 -0.023504118 -0.10895255 -0.08894986
-0.105244905 -0.086089134 -0.12104669 -0.08942024 -0.015861388 0.030339872 -0.05475572 0.0036721146
0.019756526 0.10985036 0.025788229 0.049935024 -0.06256445 0.056331243 0.066278234 -0.089897014
-0.079530925 -0.06285281 0.09801481 0.019642282 -0.12505649 -0.116744526 -0.10485773 0.12119878
-0.054105792 -0.040845342 -0.10256852 0.0032196199 -0.022861388 -0.01870598 -0.06310657 0.082941286
-0.07972051 0.11483512 0.0019860354 0.03883326 0.09645002 -0.10020982 0.06465784 0.09442474
-0.10910346 0.03660593 -0.072780855 -0.055207223 0.029057607 -0.006209943 -0.06454366 -0.03901505
0.10924405 0.1112762 0.06933683 0.11353836 -0.017782133 -0.113812804 -0.014789671 -0.008136364
0.07200879 -0.045754723 -0.09053568 0.021467367 -0.0049486426 0.09231299 -0.052927516 -0.012904183
-0.08815958 0.014967087 0.090036415 -0.06416163 0.06044188 -0.06731207 -0.022140186 0.107708916
0.11061764 -0.049809895 -0.05473004 -0.035935584 0.075290166 -0.10096811 -0.034280714 0.0027370795
-0.027646672 -0.01417455 -0.11215963 -0.075956546 0.0861449 0.0066501102 -0.040776484 -0.06481401
-0.10556381 -0.027081706 -0.1102082 0.0028947312 0.03970397 0.069043905 -0.056994434 -0.10296814
0.04580263 0.093581885 -0.08030311 -0.025194505 0.05199717 0.013950896 0.019518787 0.0053056465
0.10678518 0.10655646 -0.09510687 0.09812855 -0.07096033 0.08914696 0.07494781 0.014623409
0.097462624 0.0907344 -0.03197489 0.115572 0.11736581 0.048748568 0.03814396 -0.093336135
-0.10835421 -0.04740615 0.0729306 -0.0075855777 0.013399886 0.060204636 0.10834173 -0.10256957
-0.043977052 -0.045874577 0.01926393 0.04176076 -0.009907239 -0.10265329 -0.044904005 -0.022496548
0.013357557 0.036979146 -0.03551215 -0.068932995 -0.123883404 0.030886287 -0.095628016 0.096172266
-0.058290035 -0.024984114 -0.06931543 -0.0022575054 -0.07663725 0.013040523 -0.04617417 -0.039242003
0.050687823 -0.01034004 -0.009731646 0.021948801 -0.06058577 0.101699516 -0.056067213 0.004444675
-0.021704672 0.073962525 0.08726852 -0.046750136 0.09128977 -0.11403608 0.020204639 -0.093142726
0.099168405 0.094915524 -0.014905679 0.07028625 0.06099741 -0.1148725 -0.06267791 0.06588082
-0.021541664 -0.03085971 0.08046482 -0.06580318 -0.07348456 -0.10027618 0.07133181 -0.015768211
00000000: 11ba 823c 2b37 b73d 8547 5a3d 3021 8c3d
00000010: 40c0 82bc b531 39bd 8f85 723d ab26 6c3d
00000020: cb52 a5bc 9651 e7bd b4ad 803d 4a69 b5bd
00000030: a9d1 bbbd 50b5 2c3d 1719 87bd edf9 54bc
00000040: 5804 bbbd 0b58 84bd 0c1d 623d 323b bc3d
00000050: 29d7 9fbd ba43 4a3d bbfe 3e3d 6541 983d
00000060: a50a af3d 68e9 173c 5701 6e3c d77b eb3d
00000070: 81ee ac3d 1894 b03d 2f88 f83d b7e8 db3d
00000080: 781b f73c 485a a53d b34f c13d a054 80bd
00000090: 05c8 903d 29b0 833d 1d46 9cbd 1009 6e3d
000000a0: 272a db3d 119f a6bc 5d5d 82bd a8e3 0cbd
000000b0: a873 c33b a7db cc3d 4b10 0dbc 8e12 c43d
000000c0: c1eb 303d e7fb e4bd caaf bcbd 0339 e53d
000000d0: 9fb8 52bd 878d 0b3b 0e3d 75bd 546c 1b3d
000000e0: b1fc eebc 2b3b 963d 06b2 2fbd 9e6f c43d
000000f0: 3fd5 863c ebd4 8dbc 9701 923b 1f1a a8bd
00000100: b02a 1cbc a236 f33b 5b6b c93c 76b7 e13d
00000110: 256f 8ebd b58b c0bc 8422 dfbd 582b b6bd
00000120: a48a d7bd 804f b0bd 54e7 f7bd f521 b7bd
00000130: beef 81bc 538b f83c 8947 60bd dca7 703b
00000140: 70d8 a13c 3af9 e03d d641 d33c ab88 4c3d
00000150: ca21 80bd 97bb 663d e2bc 873d ed1b b8bd
00000160: 1ce1 a2bd f9b8 80bd fdbb c83d dae8 a03c
00000170: cf0e 00be c117 efbd a6bf d6bd 1137 f83d
00000180: 099e 5dbd 724d 27bd 720f d2bd 4200 533b
00000190: ce47 bbbc 493d 99bc 043e 81bd 1fdd a93d
000001a0: 8244 a3bd ad2e eb3d 2528 023b a00f 1f3d
000001b0: 9787 c53d ce3a cdbd 546b 843d c261 c13d
000001c0: a371 dfbd 1af0 153d 210e 95bd f820 62bd
000001d0: 380a ee3c c77c cbbb 772f 84bd 3fce 1fbd
000001e0: 58bb df3d c7e4 e33d 7800 8e3d cd86 e83d
000001f0: d6ab 91bc b016 e9bd 6050 72bc 624e 05bc
00000200: 5879 933d 4e69 3bbd c56a b9bd 55dc af3c
00000210: 3928 a2bb 980e bd3d 86ca 58bd 116c 53bc
00000220: 038d b4bd 8338 753c 0365 b83d 2c67 83bd
00000230: e891 773d e9da 89bd 565f b5bc 7e96 dc3d
00000240: 808b e23d 7605 4cbd 9b2c 60bd 3131 13bd
00000250: bb31 9a3d 5ec8 cebd ef69 0cbd 9360 333b
00000260: 467b e2bc 5f3c 68bc f3b3 e5bd 1b8f 9bbd
00000270: bd6c b03d 2be9 d93b 3e05 27bd 35bd 84bd
00000280: d731 d8bd 74da ddbc d6b4 e1bd 88b5 3d3b
00000290: a1a0 223d e466 8d3d ff72 69bd f6e0 d2bd
000002a0: 8a9b 3b3d dca7 bf3d f575 a4bd b564 cebc
000002b0: fcfa 543d 4d92 643c dde5 9f3c fdda ad3b
000002c0: 30b2 da3d 463a da3d 64c7 c2bd 9ff7 c83d
000002d0: a653 91bd ae92 b63d 3d7e 993d 0697 6f3c
000002e0: 7c9a c73d f5d2 b93d 1af8 02bd 03b1 ec3d
000002f0: 7c5d f03d 94ac 473d d73c 1c3d 0427 bfbd
00000300: d0e8 ddbd f32c 42bd a35c 953d 7090 f8bb
00000310: 328b 5b3c 2399 763d 45e2 dd3d ff0f d2bd
00000320: 4821 34bd fbe6 3bbd 64cf 9d3c 550d 2b3d
00000330: f951 22bc e33b d2bd 43ed 37bd ae4a b8bc
00000340: a8d9 5a3c 7277 173d 3075 11bd be2c 8dbd
00000350: 95b6 fdbd 3d05 fd3c 9fd8 c3bd f7f5 c43d
00000360: 88c1 6ebd 7cab ccbc 40f5 8dbd a8f2 13bb
00000370: fef3 9cbd eba7 553c 2021 3dbd 39bc 20bd
00000380: 099e 4f3d 4569 29bc 7b71 1fbc f9cd b33c
00000390: c928 78bd d647 d03d bca6 65bd a3a4 913b
000003a0: ffcd b1bc aa79 973d d6b9 b23d 127d 3fbd
000003b0: 22f6 ba3d c08b e9bd 3384 a53c 9dc1 bebd
000003c0: ce18 cb3d 1263 c23d f336 74bc 3df2 8f3d
000003d0: 6cd8 793d 4642 ebbd 475d 80bd 86ec 863d
000003e0: 2578 b0bc 81cd fcbc bdca a43d d1c3 86bd
000003f0: 137f 96bd 995d cdbd 6916 923d 562c 81bc

bias f4 [128]
0.10500104 -0.056626625 0.114182726 0.11312401 -0.05895793 0.12744235 -0.019279983 0.015551835
0.006103497 0.019490626 0.10828099 0.023582079 -0.024317283 0.009413547 0.0800931 -0.011026815
-0.0092229415 -0.016610622 0.08809213 0.060897022 0.1145669 0.12434565 0.097983606 0.1268226
0.038456272 0.020421231 0.10109587 0.055388022 0.13099763 -0.050236873 0.020632805 0.12762836
-0.039750073 -0.040471196 0.042452626 -0.043115225 -0.01300832 0.105851494 -0.0029104352 0.053877424
0.07792044 -0.01603298 0.015398194 0.10646751 0.05584858 -0.023485146 0.048255496 0.01786137
-0.028398847 0.13425042 0.037504986 0.11069968 0.020769618 0.078380756 0.10704139 0.1401779
0.08824035 0.023819404 -0.033578712 -0.025190167 0.102557056 -0.041374393 0.053899877 0.03688706
0.02606169 0.086951725 -0.005383005 0.076347224 0.045014895 0.107102245 0.12547186 -0.00011205839
-0.033153646 -0.026481546 0.07302381 0.10328723 0.03275611 0.13150047 0.0582149 -0.06198495
0.077656865 -0.024025647 0.054486986 0.048176114 0.024134945 -0.027755585 0.110873036 0.04380898
-0.04125969 0.08094328 0.045461856 0.05556584 -0.007814323 0.09847862 0.037105113 0.030126352
0.076113045 0.10289797 0.06645789 -0.004974091 0.034866873 -0.025244955 0.06970687 0.018085567
0.06825402 0.03126817 0.048598018 0.109416544 0.023139201 0.1041216 0.03586727 -0.025889443
0.13798605 -0.008395782 0.07050971 -0.031074736 0.03220225 0.0093855355 -0.043770015 0.08374496
0.010492426 0.02998864 -0.06050869 0.1232269 0.11387542 0.06865341 -0.013143469 0.08969427
00000000: c90a d73d 52f1 67bd a2d8 e93d 90ad e73d
00000010: df7d 71bd 3f80 023e 0ef1 9dbc 20cd 7e3c
00000020: d8ff c73b ceaa 9f3c 6cc2 dd3d 342f c13c
00000030: 0a35 c7bc 473b 1a3c da07 a43d d0a9 34bc
00000040: d21b 17bc 0013 88bc a669 b43d 286f 793d
00000050: 0da2 ea3d efa8 fe3d a1ab c83d c9dd 013e
00000060: 5384 1d3d 6d4a a73c 5a0b cf3d 8dde 623d
00000070: 3e24 063e 2ec5 4dbd 2106 a93c 02b1 023e
00000080: f9d0 22bd 20c5 25bd cee2 2d3d 9799 30bd
00000090: d920 55bc abc8 d83d 00bd 3ebb 93ae 5c3d
000000a0: c094 9f3d 9957 83bc b548 7c3c a30b da3d
000000b0: 7bc1 643d ec63 c0bc 8ea7 453d 0252 923c
000000c0: b3a4 e8bc f178 093e d49e 193d 84b6 e23d
000000d0: 0c25 aa3c 1786 a03d 8438 db3d cc8a 0f3e
000000e0: 5bb7 b43d e920 c33c d589 09bd 9c5b cebc
000000f0: 6f09 d23d 3278 29bd 1ec6 5c3d e316 173d
00000100: 537f d53c bf13 b23d eb63 b0bb ef5b 9c3d
00000110: 8a61 383d 6c58 db3d b27b 003e e400 ebb8
00000120: 1ecc 07bd d4ef d8bc 828d 953d 4188 d33d
00000130: 452b 063d 0fa8 063e bf72 6e3d eee3 7dbd
00000140: 900a 9f3d 6fd1 c4bc bf2d 5f3d 5154 453d
00000150: a6b6 c53c ae5f e3bc 6711 e33d 0c71 333d
00000160: ecff 28bd 97c5 a53d 3636 3a3d 0299 633d
00000170: a507 00bc 29af c93d 88fb 173d 8acb f63c
00000180: 28e1 9b3d 2cbc d23d 131b 883d b3fd a2bb
00000190: 91d0 0e3d 82ce cebc 7ac2 8e3d 2f28 943c
000001a0: c3c8 8b3d 0d13 003d b70e 473d c815 e03d
000001b0: 6c8e bd3c b53d d53d 8fe9 123d 1916 d4bc
000001c0: 374c 0d3e 768e 09bc 6567 903d 7290 febc
000001d0: 82e6 033d cac5 193c 3048 33bd 7a82 ab3d
000001e0: 6de8 2b3c bdaa f53c f6d7 77bd 635e fc3d
000001f0: 8437 e93d 299a 8c3d b457 57bc a1b1 b73d

weight f4 [256, 128]
0.0071961894 0.055016223 -0.019114653 0.08234693 0.009013286 -0.044837274 0.041103452 -0.007833816
-0.005523115 0.0020715904 0.051757507 0.07409632 -0.061549474 0.046190813 0.101935975 -0.040385768
0.104885586 0.102978766 0.106574155 0.057083994 -0.042074386 0.041947868 0.035693366 -0.024047991
0.06477734 -0.0058608516 0.11076196 0.042654846 0.052971907 -0.033798605 -0.011661142 0.090683274
-0.030195482 0.08540416 0.025775881 -0.017860504 0.09222201 0.07157109 -0.050106052 0.10678766
0.045484513 0.014805212 0.099508874 0.030770952 0.0041926275 0.083141826 -0.008219851 0.00468236
-0.0022091372 -0.0437832 -0.031893674 0.037197266 -0.0587407 0.08032523 0.032021653 0.015001046
0.065502495 0.062297113 0.026855761 -0.039727345 0.036830902 0.008887413 -0.028690802 -0.04215749
-0.059506632 -0.044132993 -0.039654545 0.089426935 -0.032629836 0.03910308 0.08936983 -0.016584165
0.028987456 -0.05628832 0.0506779 0.03099197 0.102216676 0.009715071 -0.00012493953 -0.026603004
-0.0304414 -0.062607564 -0.04707747 0.005261508 0.10269418 0.031834643 -0.016022142 0.037136994
0.003007393 0.09824672 0.054663073 0.08442999 0.056053277 0.08347368 -0.057352625 -0.008478678
0.006868008 0.1079868 0.08986523 0.08286735 0.028737994 0.068097666 -0.053661667 -0.061690852
0.032236412 -0.063947946 0.0018138166 0.030609623 0.033185355 0.101280026 -0.05516101 0.10450055
0.0024898963 0.07346517 -0.02333951 0.025798619 -0.002729514 0.10809507 -0.022531543 0.07220911
0.036825847 0.014432156 -0.036794156 0.09440269 -0.02362923 -0.0642993 0.0022517757 0.05491656
-0.09937392 0.032509334 -0.052309986 -0.0059066066 -0.04210337 -0.10159205 -0.027585097 -0.098717
0.006507648 -0.00805364 -0.078203365 0.040162217 -0.060372293 -0.0007005814 0.039937172 -0.05981223
-0.022308957 -0.018243214 -0.09017251 -0.10192534 0.062030632 -0.008801525 0.014238218 -0.039456442
0.004387144 -0.0671139 -0.06270172 -0.048496004 -0.077195674 -0.028807532 -0.08362243 -0.05269955
0.06991339 -0.06903337 -0.07523679 0.0029686275 -0.07398962 0.04562269 -0.024572289 -0.09511439
-0.048073955 -0.019030401 -0.04993351 0.045033872 -0.084189914 0.0026441966 0.06938486 0.0069182366
-0.019410716 0.03210933 -0.080281965 0.016284274 -0.08010422 -0.08853532 -0.010917341 0.028181132
0.029779134 -0.020703567 -0.06099893 0.00332406 0.009524754 0.038635056 -0.10683014 -0.059952207
0.06098215 -0.0048556807 -0.09705777 0.046890557 0.050226603 -0.008446513 0.05693214 -0.036902893
0.05833246 0.020956427 0.016943729 -0.09088552 -0.08215114 -0.03987131 -0.0033465712 -0.08309456
-0.013021682 -0.025556436 -0.025054589 -0.007185191 0.023169281 -0.013475009 -0.051325466 -0.08612946
-0.040069412 0.03406405 -0.056192584 -0.07683833 -0.08024642 -0.03559323 0.059681583 0.023466311
-0.006343361 -0.05976441 -0.08430725 -0.06476976 0.019396165 -0.066214964 -0.10381557 -0.009095107
-0.10454617 0.016085993 0.04004315 -0.09286965 -0.059142347 -0.01296958 0.04632701 -0.054552533
0.02711062 0.05611284 0.058510136 -0.044132333 0.02761863 -0.029649645 -0.07826692 -0.06629115
0.017621681 -0.107762076 0.06261323 -0.07634485 -0.089200005 -0.06362302 0.009638832 -0.075444676
00000000: 03ce eb3b b158 613d 5596 9cbc 82a5 a83d
00000010: 76ac 133c 4aa7 37bd 185c 283d 6859 00bc
00000020: 3ffb b4bb 85c3 073b aeff 533d d0bf 973d
00000030: 4d1b 7cbd 9432 3d3d cfc3 d03d 8c6b 25bd
00000040: 41ce d63d 88e6 d23d 8d43 da3d e8d0 693d
00000050: 3156 2cbd 87d1 2b3d 3533 123d 4b00 c5bc
00000060: fba9 843d 630c c0bb 2bd7 e23d d9b6 2e3d
00000070: 12f9 583d 6870 0abd 600e 3fbc 27b8 b93d
00000080: 845c f7bc 60e8 ae3d f127 d33c 3150 92bc
00000090: e5de bc3d dd93 923d 013c 4dbd 7db3 da3d
000000a0: f84d 3a3d 8f91 723c 4fcb cb3d 5d13 fc3c
000000b0: 4f62 893b 4346 aa3d 8eac 06bc 7c6e 993b
000000c0: 2cc7 10bb 0356 33bd f1a2 02bd 295c 183d
000000d0: 179a 70bd 8e81 a43d 2329 033d f2c6 753c
000000e0: 2c26 863d 422b 7f3d 9d00 dc3c 24b9 22bd
000000f0: 00dc 163d 839c 113c f908 ebbc 55ad 2cbd
00000100: 3abd 73bd ccc4 34bd ce6c 22bd 7825 b73d
00000110: dda6 05bd 8d2a 203d 8807 b73d 84db 87bc
00000120: 1a77 ed3c 958e 66bd a193 4f3d dfe2 fd3c
00000130: fa56 d13d f62b 1f3c 3302 03b9 8bee d9bc
00000140: 3e60 f9bc 6538 80bd 4ed4 40bd ba68 ac3b
00000150: 5451 d23d 0b65 023d de40 83bc f61c 183d
00000160: af17 453b 9435 c93d 63e6 5f3d a1e9 ac3d
00000170: 1f98 653d 40f4 aa3d 96ea 6abd 27ea 0abc
00000180: 070d e13b 2f28 dd3d 430b b83d 5bb6 a93d
00000190: f16b eb3c ca76 8b3d 56cc 5bbd 8caf 7cbd
000001a0: 540a 043d 24f7 82bd 96bd ed3a 08c1 fa3c
000001b0: 5eed 073d e76b cf3d 83f0 61bd 6204 d63d
000001c0: 872d 233b e874 963d 8032 bfbc a057 d33c
000001d0: a5e1 32bb f360 dd3d 1294 b8bc 5fe2 933d
000001e0: b3d6 163d da74 6c3c 78b5 16bd 3356 c13d
000001f0: 1692 c1bc 5aaf 83bd 8792 133b 30f0 603d
00000200: 8e84 cbbd 8228 053d ff42 56bd 358c c1bb
00000210: 9574 2cbd 7e0f d0bd 24fa e1bc 232c cabd
00000220: 1c3e d53b 6af3 03bc 1629 a0bd 2381 243d
00000230: f048 77bd 39a7 37ba 2995 233d abfd 74bd
00000240: 46c1 b6bc cb72 95bc 5dac b8bd 3cbe d0bd
00000250: d513 7e3d 4634 10bc 6a47 693c 149d 21bd
00000260: 08c2 8f3b 0373 89bd c269 80bd bfa3 46bd
00000270: c418 9ebd c6fd ebbc 3d42 abbd 7cdb 57bd
00000280: c02e 8f3d 5e61 8dbd bf15 9abd 4e8d 423b
00000290: df87 97bd dcde 3a3d d34b c9bc 55cb c2bd
000002a0: 32e9 44bd a5e5 9bbc 1587 4cbd 7075 383d
000002b0: c36b acbd 424a 2d3b a619 8e3d 60b2 e23b
000002c0: 3903 9fbc 1385 033d df6a a4bd 9966 853c
000002d0: ae0d a4bd 0152 b5bd a6de 32bc 1edc e63c
000002e0: 5ff3 f33c 879a a9bc 04da 79bd 79d8 593b
000002f0: b70d 1c3c cb3f 1e3d c3c9 dabd 7290 75bd
00000300: 6bc8 793d 671c 9fbb 39c6 c6bd 5010 403d
00000310: 69ba 4d3d 3e63 0abc ad31 693d 7d27 17bd
00000320: 04ee 6e3d d0ac ab3c 93cd 8a3c 3022 babd
00000330: db3e a8bd 1950 23bd 2652 5bbb 7b2d aabd
00000340: e558 55bc bb5b d1bc 483f cdbc c071 ebbb
00000350: 81cd bd3c 49c6 5cbc a73a 52bd a464 b0bd
00000360: d31f 24bd bf86 0b3d 322a 66bd 6a5d 9dbd
00000370: 3c58 a4bd 35ca 11bd ad74 743d 6c3c c03c
00000380: f8db cfbb 87cb 74bd 48a9 acbd 02a6 84bd
00000390: b5e4 9e3c b69b 87bd 429d d4bd a503 15bc
000003a0: 4d1c d6bd c6c6 833c 4904 243d 7132 bebd
000003b0: 3f3f 72bd 5c7e 54bc 64c1 3d3d 7a72 5fbd
000003c0: 1717 de3c 94d6 653d 53a8 6f3d 1bc4 34bd
000003d0: 7740 e23c d0e3 f2bc 684a a0bd a8c3 87bd
000003e0: 585b 903c 5db2 dcbd 5d3b 803d b05a 9cbd
000003f0: 7eae b6bd c94c 82bd 31ec 1d3c bd82 9abd

bias f4 [256]
0.09351508 0.019483643 0.0071380087 0.062004242 0.0005758746 0.08303144 0.09060964 -0.010043346
0.07487526 0.106044985 -0.04728827 -0.055600487 -0.07821642 -0.0069972556 0.034861434 0.012609647
0.015302601 0.016043598 0.09190979 0.023636399 0.05181239 0.010207825 -0.03773913 0.022193702
-0.09344597 0.029657383 -0.010759669 0.098557234 0.06006515 -0.024177069 0.08810016 0.087374486
0.072668836 0.07201119 -0.025249036 0.053220946 0.10588536 0.03927307 0.10283245 -0.060196586
0.029597877 -0.0035871605 0.009270391 0.011826584 0.06522055 -0.013237368 -0.056257796 0.0940169
0.07527238 0.056450326 0.03398586 -0.04637279 0.0017243266 -0.07488968 0.06539552 -0.010957215
0.08274043 0.039633036 0.046962824 0.05321077 0.072371505 -0.023939686 0.04240644 0.042684916
-0.06512229 0.013000662 -0.056109 -0.01607699 0.0065948996 0.042442586 -0.030652618 -0.05213338
0.0872003 0.091952465 -0.019762529 -0.08136572 -0.06230168 -0.010650617 0.009441596 0.037917964
-0.06587278 0.029632732 -0.035694607 -0.058175623 -0.005278283 0.0416031 -0.07285788 0.08059797
-0.019673781 0.011700323 -0.07427956 -0.04062704 -0.004551492 -0.03519667 0.00046199656 0.04081919
0.026187345 0.09216996 -0.10360887 0.097909495 -0.033440903 -0.042919893 -0.043992218 0.11529311
0.016560102 0.08889321 -0.017946111 -0.02697414 -0.05329608 -0.007141565 0.08494569 -0.0009553759
0.04394448 0.024616564 0.107788906 -0.09076591 0.084161796 0.08207294 0.09345055 -0.06302268
0.042932067 0.0774331 0.08454211 -0.026616698 -0.004877023 0.114535816 0.019465815 -0.085183874
0.012805294 -0.010024701 -0.037606172 0.048254404 -0.03909966 0.045257702 -0.084405996 0.0718626
0.05824519 -0.056690168 -0.025866978 0.06765967 0.043683745 0.0731777 0.024227377 0.04669409
0.003931646 0.08826647 0.097700186 -0.014502289 0.011746148 0.081637345 0.05842233 -0.050451133
-0.055731338 0.026709428 -0.09142158 -0.0027362811 0.08611899 -0.039939567 0.049861416 0.07076768
0.032386705 0.02426583 -0.012859218 0.012944755 -0.07560167 0.019293716 0.051569354 0.0021634034
0.107347965 0.013711561 0.025689753 0.10086673 -0.0023793448 0.05207519 0.066952296 0.021670632
0.052330725 0.019170156 -0.050848212 0.06883097 0.061712228 -0.07720671 0.06581393 0.0014879412
0.0873461 -0.020989021 0.04431653 -0.04723273 0.02900009 0.03731074 0.01663508 0.017449213
0.10104538 0.06489012 -0.004718841 -0.020278744 -0.05095739 0.042187296 0.09448463 0.055595625
0.00019681928 -0.0052714297 0.0711416 -0.064224906 -0.087419316 0.08708587 0.020175166 0.09065941
-0.082026444 -0.01208967 0.06377216 0.092392616 -0.046280626 -0.007331367 0.015663112 0.058022432
0.048460655 0.041333534 0.11893265 0.095337994 -0.010267529 0.060039233 -0.007398474 -0.039612595
-0.004878235 -0.05325238 0.019126542 0.053367015 0.055046316 0.09928618 -0.04167006 0.09324518
0.049521785 0.047580447 0.09724191 -0.06253623 0.0005951638 -0.02557414 0.083127804 0.03514298
-0.04327885 -0.03817876 0.0762787 0.040061925 0.10468236 -0.06551516 -0.092769 0.017944766
0.09283376 -0.039694738 -0.067569636 0.09849168 0.10424521 0.069550924 0.07452416 0.022283232
00000000: d684 bf3d 299c 9f3c f5e5 e93b 29f8 7d3d
00000010: 4af6 163a 630c aa3d 8c91 b93d d98c 24bc
00000020: 3358 993d 1d2e d93d 58b1 41bd 56bd 63bd
00000030: ee2f a0bd 3c49 e5bb ddca 0e3d b198 4e3c
00000040: c3b7 7a3c dd6d 833c 333b bc3d 1fa1 c13c
00000050: 3b39 543d b93e 273c 5994 1abd 91cf b53c
00000060: 9a60 bfbd 0af4 f23c 5349 30bc 60d8 c93d
00000070: e006 763d fd0e c6bc db6d b43d 65f1 b23d
00000080: 66d3 943d 9a7a 933d 11d7 cebc 35fe 593d
00000090: 6cda d83d ccdc 203d d299 d23d b290 76bd
000000a0: 3f77 f23c 9116 6bbb d7e2 173c 4ac4 413c
000000b0: 5a92 853d 8ce1 58bc 936e 66bd ef8b c03d
000000c0: 6828 9a3d 7538 673d c234 0b3d 65f1 3dbd
000000d0: cd02 e23a c35f 99bd 16ee 853d e485 33bc
000000e0: d173 a93d 4056 223d 175c 403d 89f3 593d
000000f0: 8337 943d 291d c4bc 60b2 2d3d 61d6 2e3d
00000100: d65e 85bd bb00 553c 8dd2 65bd e4b3 83bc
00000110: 071a d83b 47d8 2d3d 331b fbbc d089 55bd
00000120: 1296 b23d 9351 bc3d 07e5 a1bc 12a3 a6bd
00000130: 0c30 7fbd ed7f 2ebc edb0 1a3c de4f 1b3d
00000140: 4fe8 86bd 58c0 f23c 8234 12bd 9049 6ebd
00000150: 72f5 acbb 0368 2a3d 8336 95bd 8c10 a53d
00000160: e92a a1bc b6b2 3f3c e21f 98bd 8a68 26bd
00000170: af24 95bb 622a 10bd 2138 f239 0632 273d
00000180: d886 d63c 9bc3 bc3d e330 d4bd c684 c83d
00000190: 54f9 08bd c5cc 2fbd 2f31 34bd cb1e ec3d
000001a0: 0da9 873c a50d b63d b903 93bc dff8 dcbc
000001b0: fe4c 5abd ca03 eabb 02f8 ad3d 3172 7aba
000001c0: 21ff 333d ada8 c93c 6ec0 dc3d 7ae3 b9bd
000001d0: 055d ac3d dc15 a83d 0163 bf3d 0912 81bd
000001e0: 89d9 2f3d 3f95 9e3d 6a24 ad3d 430b dabc
000001f0: 6fcf 9fbb c191 ea3d c676 9f3c e274 aebd
00000200: 4ccd 513c a53e 24bc ee08 1abd 69a6 453d
00000210: f726 20bd 2460 393d 0ddd acbd b32c 933d
00000220: 8292 6e3d f333 68bd fce6 d3bc 2791 8a3d
00000230: baed 323d 31de 953d 7e78 c63c 4d42 3f3d
00000240: 09d5 803b 0dc5 b43d 0917 c83d 029b 6dbc
00000250: ea72 403c 7b31 a73d 414c 6f3d d9a5 4ebd
00000260: 8b46 64bd bbcd da3c 3d3b bbbd 2e53 33bb
00000270: 275f b03d ac97 23bd 7c3b 4c3d a5ee 903d
00000280: eca7 043d 22c9 c63c 78af 52bc 3d16 543c
00000290: 0cd5 9abd db0d 9e3c 633a 533d e3c7 0d3b
000002a0: 40d9 db3d 75a6 603c 5173 d23c 3793 ce3d
000002b0: c8ee 1bbb cb4c 553d 491e 893d 9c86 b13c
000002c0: be58 563d bb0a 9d3c 3746 50bd 40f7 8c3d
000002d0: f6c5 7c3d 8d1e 9ebd 74c9 863d 0607 c33a
000002e0: 83e2 b23d 2bf1 abbc 4085 353d 1b77 41bd
000002f0: 9991 ed3c 26d3 183d 4b46 883c a7f1 8e3c
00000300: e1f0 ce3d 1ce5 843d 82a0 9abb 9c1f a6bc
00000310: b2b8 50bd 96cc 2c3d 2881 c13d 3db8 633d
00000320: 4661 4e39 f5bb acbb b0b2 913d 5988 83bd
00000330: e608 b3bd 145a b23d 6446 a53c a4ab b93d
00000340: 7bfd a7bd c013 46bc fa9a 823d 5738 bd3d
00000350: c190 3dbd f73b f0bb ed4f 803c eea8 6d3d
00000360: ae7e 463d 5a4d 293d f692 f33d 9140 c33d
00000370: 2339 28bc b3eb 753d e66e f2bb d140 22bd
00000380: 9ad9 9fbb 2b1f 5abd 44af 9c3c 5f97 5a3d
00000390: 3f78 613d 8e56 cb3d 3aae 2abd 54f7 be3d
000003a0: 5bd7 4a3d b7e3 423d c426 c73d ff12 80bd
000003b0: c404 1c3a dc80 d1bc e93e aa3d 16f2 0f3d
000003c0: 2a45 31bd 5561 1cbd 0238 9c3d f917 243d
000003d0: b563 d63d d02c 86bd acfd bdbd e700 933c
000003e0: a01f be3d f396 22bd f361 8abd 02b6 c93d
000003f0: 837e d53d b770 8e3d 1fa0 983d 538b b63c

weight f4 [784, 256]
0.050198037 -0.07328277 0.070642516 0.028706178 0.07272391 0.0033392585 -0.031569384 0.039861053
0.012031715 -0.002617389 -0.008215623 0.01087811 0.00926683 0.0069154208 0.062784865 0.044645157
0.009587972 -0.007911074 0.06431306 0.05081659 0.06408257 0.05759257 -0.023145877 0.09109161
0.035649385 0.07236788 0.06318545 0.013478103 -0.030105585 0.014399447 0.04959314 -0.04364203
0.015031477 -0.011892337 0.035747603 0.027738033 -0.023614794 0.028688772 -0.037488177 0.01688725
-0.035702243 -0.024754452 0.07722268 -0.0674804 0.012565911 0.07760144 0.06914802 0.07660213
0.055686224 0.015432969 -0.0067159184 -0.024204163 0.043002844 -0.037797876 0.059702985 -0.053208232
-0.006661978 0.012621074 0.0792994 0.056987446 0.06470749 -0.031045167 -0.012372374 -0.021036118
-0.020290632 -0.019736882 0.019257132 -0.011568616 -0.018519977 0.07716667 0.07374441 0.043468535
0.06487724 0.005580418 -0.0082152225 -0.06444703 -0.021465633 0.05722815 0.07791956 -0.03068323
0.07449773 0.039381616 0.0676387 -0.009709868 -0.02177232 0.06128632 -0.0702689 0.012498973
-0.022869153 0.035066303 -0.014520306 0.018106215 -0.04674291 -0.038293257 -0.0087142745 0.053156942
0.06838573 0.046740934 -0.012949095 0.02279549 0.018170435 0.009722469 0.014594077 0.035929237
0.042302947 0.04480334 -0.03297076 0.0833859 -0.016170008 -0.032007165 -0.004025488 0.036762625
0.03537821 -0.038213063 0.055664968 0.04254547 0.047657415 0.030137401 0.06926823 -0.013590257
0.03197949 0.046753872 -0.0027401492 -0.024370113 0.022180146 0.08780915 0.0028169656 0.030711314
0.008766357 -0.03604639 0.05733385 0.033346053 0.062068876 0.07484059 0.018776638 0.078901246
0.015273198 -0.022136513 0.061282437 -0.0018823922 0.06620107 0.07522132 0.07581881 0.06715353
0.035800565 -0.025473444 0.034057286 0.06662665 0.047570333 -0.039783213 0.004772281 0.039219048
-0.004299728 -0.07696745 -0.066850156 -0.043348692 0.057767916 0.0036519489 0.038472716 0.06295198
0.07976754 -0.034345966 -0.07291466 0.07609224 -0.019470138 -0.030771434 0.02951592 0.03386369
0.03386283 -0.033424783 0.023582987 0.06045979 0.02824765 0.022065945 0.07866564 -0.008240216
-0.028630534 0.0003944511 -0.021133913 -0.02131083 0.063971266 -0.06869515 0.05979323 -0.0072034993
-0.022550128 0.014871981 0.08223224 -0.0075179986 0.060262274 0.03999015 -0.031155465 0.056466304
-0.026010701 0.053582076 -0.024713831 -0.023614138 -0.009518498 0.006836566 -0.033465523 0.08012179
-0.027400536 -0.008510901 0.06886823 -0.07829991 -0.0339512 0.04471103 -0.024318285 0.045511797
-0.064421974 0.06951081 0.07148819 0.015819719 0.04106026 -0.015786089 0.00027205065 -0.03752396
-0.0055244933 -0.010204197 0.054477822 0.04127643 0.035417244 0.0017922604 -0.0068704085 -0.029724292
0.06875885 0.0095463265 -0.03938274 0.04562299 -0.031355884 0.04584515 -0.0314007 0.05276255
-0.018699713 -0.008462404 -0.00063860463 0.057141945 0.051896743 0.026697883 -0.0057126293 0.038007457
-0.077044725 0.06892544 -0.02573759 -2.8700817e-05 0.020872092 -0.035278384 -0.06869104 0.019400587
0.044332575 -0.003095783 -0.019719562 -0.035397585 0.07236228 0.0243827 0.025087528 -0.03954558
00000000: 759c 4d3d 4715 96bd 06ad 903d 3829 eb3c
00000010: 46f0 943d 76d7 5a3b e64e 01bd 5845 233d
00000020: ac20 453c 8088 2bbb d29a 06bc 1a3a 323c
00000030: e7d3 173c c19a e23b 5a95 803d d7dd 363d
00000040: df16 1d3c 739d 01bc 91b6 833d 0f25 503d
00000050: b93d 833d 30e6 6b3d 6c9c bdbc 3d8e ba3d
00000060: 1705 123d 9c35 943d 6067 813d 43d3 5c3c
00000070: fd9f f6bc a8eb 6b3c 2d22 4b3d fcc1 32bd
00000080: 9646 763c 14d8 42bc 146c 123d df3a e33c
00000090: d073 c1bc b704 eb3c 348d 19bd 2157 8a3c
000000a0: 843c 12bd d9c9 cabc ed26 9e3d 2a33 8abd
000000b0: 40e1 4d3c 81ed 9e3d 7a9d 8d3d 94e1 9c3d
000000c0: 3d17 643d 90da 7c3c 3511 dcbb cf47 c6bc
000000d0: c023 303d f2d1 1abd 1e8b 743d e0f0 59bd
000000e0: b94c dabb 9fc8 4e3c b967 a23d ab6b 693d
000000f0: 5c85 843d 6f52 febc 7fb5 4abc f053 acbc
00000100: 8a38 a6bc 3eaf a1bc 22c1 9d3c 4b8a 3dbc
00000110: 35b7 97bc 8f09 9e3d 4f07 973d 100c 323d
00000120: 5cde 843d f0db b63b 2499 06bc cefc 83bd
00000130: b2d8 afbc 1168 6a3d 4a94 9f3d 665b fbbc
00000140: 4492 983d 9e4e 213d 2986 8a3d 2316 1fbc
00000150: dd5b b2bc 5d07 7b3d 24e9 8fbd 7ec8 4c3c
00000160: 1758 bbbc afa1 0f3d 94e6 6dbc 7c53 943c
00000170: 7e75 3fbd 64d9 1cbd 51c6 0ebc 18bb 593d
00000180: d10d 8c3d 6c73 3f3d 7128 54bc 9cbd ba3c
00000190: 2ada 943c fe4a 1f3c ff1b 6f3c 892a 133d
000001a0: db45 2d3d b583 373d 590c 07bd 3ac6 aa3d
000001b0: f776 84bc f219 03bd 3ee8 83bb 6894 163d
000001c0: bee8 103d 4d85 1cbd f300 643d 2944 2e3d
000001d0: 6c34 433d b6e2 f63c 80dc 8d3d aba9 5ebc
000001e0: edfc 023d fd80 3f3d 1394 33bb d5a3 c7bc
000001f0: 23b3 b53c 49d5 b33d d79c 383b 4b96 fb3c
00000200: c4a0 0f3c 61a5 13bd e6d6 6a3d df95 083d
00000210: ef3b 7e3d 0646 993d 77d1 993c fa96 a13d
00000220: 6f3c 7a3c a257 b5bc 4b03 7b3d 9aba f6ba
00000230: 6d94 873d a30d 9a3d e446 9b3d ca87 893d
00000240: 9da3 123d afad d0bc a77f 0b3d 8e73 883d
00000250: 1cd9 423d b9f3 22bd cb60 9c3b 27a4 203d
00000260: bce4 8cbb 1ca1 9dbd bce8 88bd 668e 31bd
00000270: 0d9e 6c3d 8955 6f3b 9195 1d3d f8ec 803d
00000280: 2a5d a33d 5bae 0cbd 4854 95bd 40d6 9b3d
00000290: d77f 9fbc 6014 fcbc 5fcb f13c a7b4 0a3d
000002a0: c0b3 0a3d 6de8 08bd 1c31 c13c afa4 773d
000002b0: 9e67 e73c a4c3 b43c 731b a13d f901 07bc
000002c0: 958a eabc 55ce ce39 0721 adbc 0d94 aebc
000002d0: 5e03 833d 0bb0 8cbd bfe9 743d 550b ecbb
000002e0: 0cbb b8bc 9ca9 733c 6069 a83d 8b59 f6bb
000002f0: 93d5 763d b6cc 233d bf39 ffbc 3649 673d
00000300: 6514 d5bc e178 5b3d a974 cabc 7072 c1bc
00000310: 79f3 1bbc 4605 e03b 2513 09bd e516 a43d
00000320: 1777 e0bc 4e71 0bbc c90a 8d3d b45b a0bd
00000330: 6a10 0bbd ea22 373d 2437 c7bc 946a 3a3d
00000340: abef 83bd af5b 8e3d 6668 923d 5b98 813c
00000350: ce2e 283d d451 81bc 05a2 8e39 b9b2 19bd
00000360: cf06 b5bb 812f 27bc 2324 5f3d 7911 293d
00000370: ac11 113d 48ea ea3a 2a21 e1bb 5c80 f3bc
00000380: 71d1 8c3d 3268 1c3c cc4f 21bd 2cdf 3a3d
00000390: 076f 00bd 20c8 3b3d 059e 00bd 8b1d 583d
000003a0: 2430 99bc e5a5 0abc 0868 27ba ac0d 6a3d
000003b0: ae91 543d 85b5 da3c 0231 bbbb b5ad 1b3d
000003c0: a0c9 9dbd c828 8d3d a3d7 d2bc 89c2 f0b7
000003d0: f3fb aa3c 1180 10bd e3ad 8cbd fbed 9e3c
000003e0: 1396 353d 9fe2 4abb eb8a a1bc 0ffd 10bd
000003f0: ad32 943d 3abe c73c 5c84 cd3c 8cfa 21bd

bias f4 [784]
0.038469754 -0.028895538 0.066204965 0.02184406 -0.006563265 -0.020069469 0.042046476 0.07270397
0.066984646 0.026960995 -0.03636207 -0.02247228 -0.016985025 0.06432024 0.06448704 0.015503475
0.00960037 0.039865475 0.03310484 0.01671976 0.017812079 0.045532323 -0.047483187 -0.020734102
0.00014716365 -0.031129576 0.061965443 0.061470266 0.013791545 -0.005725975 -0.015899228 0.06155783
-0.004848252 0.047130175 0.028730797 -0.018899746 0.06278536 -0.050270244 -0.006715557 -0.04761042
0.060820166 -0.007035208 0.024966309 0.05198026 0.021111842 -0.047020003 0.07136841 -0.048026957
0.022649055 -0.008287851 -0.022951687 -0.007502121 -0.02011528 0.006010394 -0.037104655 -0.038758658
-0.015271697 -0.036788363 0.07103287 0.021001201 0.016033672 0.011428967 -0.021376686 0.050354615
-0.037374154 -0.0024584825 0.0694199 0.064895615 -0.029916583 -0.027283402 -0.04137654 0.033345193
0.008095207 -0.047541097 0.0013492972 0.0690866 0.027047459 0.012664385 0.014322908 0.067214556
0.014033752 -0.047813088 0.065230414 -0.046938226 -0.00466942 0.032933805 -0.039518863 0.052765757
0.061356585 -0.009355672 0.028825918 -0.048627496 -0.03669245 0.029297117 -0.03478096 -0.04285517
0.02791154 0.04735274 0.029174065 -0.024720257 0.059575748 0.068701334 0.041286994 0.0017935111
-0.047358513 0.0548097 0.058276925 0.021768019 0.046309747 0.008813501 -0.034410402 0.0654276
-0.006703547 0.027631914 0.061758928 0.054043964 -0.04176056 0.05540532 0.035373 0.00071520667
0.071498334 -0.026386343 0.033690985 -0.021483708 -0.016633907 0.03351286 -0.028166723 -0.031678166
0.04382502 -0.03348082 -0.0130769275 0.02928259 0.06345594 -0.033805247 -0.038556546 0.029576696
0.06543661 0.043620504 -0.044282947 -0.035406925 -0.0091504175 0.059777092 -0.0038751739 -0.041137587
-0.034332797 0.016785158 -0.013240874 0.008763706 0.005021375 -0.011068947 -0.0077460753 -0.039850738
-0.028543742 0.073242396 0.038771052 0.006342131 0.07257602 0.063679464 -0.044745926 0.035422184
-0.04125188 0.06372141 0.06728069 0.002138843 0.05888544 -0.009158234 -0.02431131 0.015519069
0.051652133 0.047411732 0.015819155 -0.042197958 0.07233212 -0.049439628 -0.012034699 0.009126511
0.028848397 -0.045209955 -0.031421173 0.031184388 0.07417938 0.014692262 0.03608918 0.008838782
0.031502325 0.047685474 -0.0074505717 -0.011672479 0.02104725 0.06120132 -0.007738053 -0.013125117
0.041775823 0.046683416 0.051795136 0.055676937 -0.041596062 0.0012778116 0.029947944 0.047726475
0.06511794 0.029926067 0.029987741 0.0513414 0.022821534 0.026660867 -0.042240847 0.06474432
-0.023172416 0.0153724495 -0.041427556 0.05621361 -0.0007135088 0.055482186 0.05396171 0.06430605
-0.049069744 0.054632563 0.07006659 0.031974 0.07254437 -0.035589274 0.046527643 0.024239233
0.024285564 0.05455682 0.0070641544 0.00970005 0.04670521 -0.030674683 -0.032565262 0.0040185666
-0.012226234 0.065828405 0.017640037 -8.5560096e-05 0.061481886 0.049977735 -0.035993453 -0.00878092
-0.0025603028 -0.004635602 0.034446888 0.022571905 0.06114188 -0.02633205 0.05391359 -0.014957589
-0.020310247 -0.044258088 0.015025125 0.0025237855 0.03830739 -0.03805908 0.062116135 0.0133135505
00000000: 7692 1d3d 56b6 ecbc 7896 873d 50f2 b23c
00000010: a810 d7bb ba68 a4bc ed38 2c3d d2e5 943d
00000020: 3f2f 893d 4edd dc3c 65f0 14bd c917 b8bc
00000030: 2e24 8bbc 54ba 833d c811 843d 4a02 7e3c
00000040: df4a 1d3c fb49 233d f198 073d e1f7 883c
00000050: a3ea 913c 1a80 3a3d bb7d 42bd 90da a9bc
00000060: f14f 1a39 7403 ffbc 7acf 7d3d 3fc8 7b3d
00000070: eff5 613c f6a0 bbbb 193f 82bc 1024 7c3d
00000080: 16de 9ebb 920b 413d d95c eb3c a4d3 9abc
00000090: 9c95 803d 2ce8 4dbd 2d0e dcbb 2503 43bd
000000a0: 911e 793d 9a87 e6bb 2586 cc3c 41e9 543d
000000b0: bef2 ac3c 0c98 40bd 9a29 923d eab7 44bd
000000c0: 838a b93c c4c9 07bc 2d05 bcbc 5ad4 f5bb
000000d0: cdc8 a4bc d7f2 c43b 0dfb 17bd 66c1 1ebd
000000e0: 2436 7abc 65af 16bd ae79 913d b60a ac3c
000000f0: 0c59 833c 9040 3b3c 291e afbc a440 4e3d
00000100: a415 19bd 7e1e 21bb 052c 8e3d fee7 843d
00000110: 9f13 f5bc 7181 dfbc 727a 29bd f894 083d
00000120: c2a1 043c 74ba 42bd e7da b03a 467d 8d3d
00000130: a292 dd3c 487e 4f3c a1aa 6a3c c9a7 893d
00000140: d2ed 653c a8d7 43bd 8697 853d 4c42 40bd
00000150: ef01 99bb 99e5 063d 88de 21bd e820 583d
00000160: 0b51 7b3d 8848 19bc 5524 ec3c a02d 47bd
00000170: d34a 16bd 8200 f03c 7b76 0ebd e788 2fbd
00000180: bea6 e43c f2f4 413d 73fe ee3c 2382 cabc
00000190: b305 743d 49b3 8c3d 8d1c 293d 3f14 eb3a
000001a0: 00fb 41bd 2380 603d c9b3 6e3d d852 b23c
000001b0: 4aaf 3d3d 8166 103c ecf1 0cbd e8fe 853d
000001c0: 6ea9 dbbb 535c e23c eef6 7c3d 345d 5d3d
000001d0: 1f0d 2bbd b0f0 623d 47e3 103d b57c 3b3a
000001e0: b86d 923d 2c28 d8bc 8fff 093d 9afe afbc
000001f0: d543 88bc c844 093d e6bd e6bc f7c0 01bd
00000200: dd81 333d 2f23 09bd 9c40 56bc 0be2 ef3c
00000210: 30f5 813d 5f77 0abd 78ed 1dbd d44a f23c
00000220: a103 863d 6aab 323d 0962 35bd da06 11bd
00000230: a2eb 15bc d3d8 743d a1f6 7dbb e37f 28bd
00000240: 8ca0 0cbd 0781 893c 40f0 58bc a695 0f3c
00000250: 598a a43b 875a 35bc cad2 fdbb 873a 23bd
00000260: 91d4 e9bc 1c00 963d 65ce 1e3d a7d1 cf3b
00000270: bda2 943d 616a 823d 8147 37bd da16 113d
00000280: bbf7 28bd 5f80 823d 75ca 893d d52b 0c3b
00000290: dc31 713d 6b0c 16bc 8328 c7bc b143 7e3c
000002a0: 3091 533d ce32 423d 2c97 813c c4d7 2cbd
000002b0: dd22 943d 3581 4abd 302d 45bc 5d87 153c
000002c0: 7953 ec3c 132e 39bd 7db3 00bd 6776 ff3c
000002d0: 5ceb 973d d0b7 703c 3fd2 133d 8ad0 103c
000002e0: 9508 013d d851 433d ed23 f4bb ed3d 3fbc
000002f0: 486b ac3c 3cae 7a3d 7e8f fdbb bb0a 57bc
00000300: 201d 2b3d 1c37 3f3d 2327 543d 800d 643d
00000310: a260 2abd 3e7c a73a 6455 f53c d67c 433d
00000320: 8e5c 853d 8327 f53c daa8 f53c 5c4b 523d
00000330: 3af4 ba3c e467 da3c bd04 2dbd ac98 843d
00000340: 14d4 bdbc badc 7b3c f1af 29bd 3e40 663d
00000350: c40a 3bba 4a41 633d f406 5d3d e4b2 833d
00000360: 5bfd 48bd 65c6 5f3d 137f 8f3d 2bf7 023d
00000370: 2592 943d 0fc6 11bd c593 3e3d 5b91 c63c
00000380: 85f2 c63c f976 5f3d 6c7a e73b f5ec 1e3c
00000390: f64d 3f3d 7949 fbbc 2763 05bd 2eae 833b
000003a0: 8b50 48bc 0bd1 863d d781 903c ba6e b3b8
000003b0: 6ed4 7b3d 74b5 4c3d df6d 13bd d9dd 0fbc
000003c0: c1ca 27bb 3fe6 97bb 2e18 0d3d b7e8 b83c
000003d0: e86f 7a3d 50b6 d7bc 7fd4 5c3d ad10 75bc
000003e0: ad61 a6bc f847 35bd f12b 763c 1866 253b
000003f0: 36e8 1c3d d6e3 1bbd 7d6d 7e3d 1421 5a3c
